cifar_net.pth (torch, 250887 bytes, 10 tensors)

conv1.weight f4 [6, 3, 5, 5]
0	0x3cbaf8c7	0.022823704
1	0x3e35357f	0.17696188
2	0x3e8477d7	0.2587268
3	0x3d42818f	0.047486838
4	0x3d36ee77	0.04466101
5	0xbda1e4c7	-0.07904964
6	0x3bb9d745	0.005671414
7	0x3c632e47	0.013866014
8	0xbd17f024	-0.03709425
9	0xbdacf37d	-0.08444879
10	0xbe357809	-0.17721571
11	0xbe43c065	-0.19116361
12	0xbe79a2e9	-0.24378552
13	0xbe748100	-0.23877335
14	0xbe731172	-0.23737124
15	0xbe57b99c	-0.21066898
16	0xbe15f15d	-0.14642854
17	0xbea1c2c9	-0.31593922
18	0xbd992aa0	-0.07478833
19	0xbe3cabfc	-0.18424982
20	0xbe85938a	-0.26089126
21	0xbe4a0b9d	-0.19730993
22	0xbdffa276	-0.12482159
23	0xbe506bf5	-0.20353682
24	0xbd7342c8	-0.05938986
25	0xbd2a3142	-0.041550882
26	0x3d18a154	0.03726323
27	0x3ca0c6f3	0.019626116
28	0x3e0c9112	0.13727215
29	0xbda990a2	-0.0827954
30	0x3e014f0e	0.12627813
31	0x3e4a9773	0.19784336
32	0x3e436028	0.1907965
33	0xbd107810	-0.03527075
34	0xbe295a74	-0.16538411
35	0x3dc7dfe9	0.09759504
36	0x3e18eabd	0.14933296
37	0xbdb39003	-0.087677024
38	0xbd6856fe	-0.056723587
39	0xbde115d0	-0.109904885
40	0xbdd6c211	-0.10486234
41	0xbdbf96a4	-0.09354904
42	0xbdcde2eb	-0.10053047
43	0xbdce8ab0	-0.10085046
44	0x3da931f1	0.08261479
45	0xbe19e95f	-0.1503043
46	0x3d3fe3bf	0.046848055
47	0x3da55746	0.08073287
48	0x3d03aca3	0.03214706
49	0x3d29db4b	0.0414689
50	0x3bcfe906	0.006344917
51	0x3d076c6c	0.033062384
52	0x3d389b94	0.045070246
53	0x3d971faa	0.07379086
54	0x3dd4beba	0.10387941
55	0x3e785d23	0.24254279
56	0x3eac0f47	0.33605406
57	0x3eb0f7e8	0.34564137
58	0x3e6b9340	0.2300539
59	0x3d2a6c1a	0.041607
60	0x3e59fd17	0.21287952
61	0x3e5d6e40	0.21624088
62	0x3e44a3fe	0.19203183
63	0x3d2e80a0	0.042603135
64	0x3937811b	0.00017500336
65	0x3d300a9d	0.04297887
66	0xbd1ae140	-0.03781247
67	0xbc47b9d0	-0.012190297
68	0x3d3c6134	0.045991138
69	0x3e29434c	0.16529578
70	0x3dde12c0	0.1084342
71	0x3e0aaaa6	0.1354166
72	0x3e03337c	0.12812608
73	0x3d7f848c	0.062382266
74	0x3cb4c325	0.022065708
75	0x3e4d9884	0.20077711
76	0x3eb57459	0.3544033
77	0x3ebfd9b3	0.3747078
78	0x3e377831	0.17916943
79	0x3e7df1da	0.2479929
80	0x3e70c784	0.23513609
81	0x3eca8e92	0.39561898
82	0x3ed2666a	0.4109376
83	0x3ed16087	0.40893957
84	0x3e460452	0.19337586
85	0xbebe2249	-0.37135532
86	0xbe73ae0b	-0.23796861
87	0xbe839761	-0.2570143
88	0xbd743ff4	-0.059631303
89	0xbe806044	-0.25073445
90	0xbe75b841	-0.23996069
91	0xbe91bb2f	-0.28463122
92	0xbe758e85	-0.23980148
93	0xbe0998b3	-0.13437156
94	0xbe901907	-0.28144094
95	0xbe4cf01f	-0.20013474
96	0xbdc99872	-0.0984353
97	0xbdf7bf75	-0.120970644
98	0x3d8b73b1	0.06809176
99	0xbe1fa2f2	-0.15589502
100	0xbd7262ea	-0.059176363
101	0x3db5ffdc	0.08886692
102	0x3d92ace7	0.07161885
103	0x3db4fc4a	0.08837183
104	0x3d542540	0.051793337
105	0x3d87bec5	0.06628183
106	0x3e95f365	0.29287258
107	0x3e98f608	0.29875207
108	0x3e4a9b9a	0.1978592
109	0x3e716ec1	0.23577406
110	0xbecc26cc	-0.3987335
111	0xbe4949ea	-0.19657102
112	0xbe94c625	-0.29057422
113	0xbe6e1fd0	-0.23254323
114	0xbeb27eb8	-0.34862304
115	0xbe194bc4	-0.14970309
116	0xbe817f66	-0.2529251
117	0xbe701f33	-0.23449402
118	0xbe8f3623	-0.2797099
119	0xbe3a3899	-0.18185653
120	0x3e3cc3d2	0.18434075
121	0x3e98d55e	0.29850286
122	0x3e178502	0.14796832
123	0x3defd309	0.11710174
124	0x3e2647bf	0.16238306
125	0xbe4f6216	-0.2025226
126	0x3da584a9	0.080819435
127	0xbd7a1c14	-0.061061934
128	0x3e151340	0.14558125
129	0x3df1c622	0.11805369
130	0xbd7765bf	-0.060399767
131	0x3e08f9d9	0.1337656
132	0x3e2f4705	0.17116936
133	0x3e402f92	0.18768147
134	0x3dd57f6e	0.10424696
135	0xbe764e1a	-0.24053231
136	0xbe09592d	-0.13412924
137	0xbe79dcd1	-0.24400641
138	0xbe22b2ce	-0.15888521
139	0xbe4c12e1	-0.19929077
140	0xbe16cf9e	-0.14727637
141	0x3d64d44b	0.05586652
142	0xbe877175	-0.26453748
143	0xbe625315	-0.22102006
144	0xbe593e44	-0.21215159
145	0x3e360fe3	0.17779498
146	0x3ea6d599	0.32584837
147	0x3e98b246	0.29823512
148	0x3ea27c5b	0.317355
149	0xbc8f6fea	-0.01750942
150	0x3ddd951d	0.10819457
151	0xbeaf5a03	-0.3424836
152	0x3c31a51f	0.010842591
153	0x3e7fae0e	0.2496874
154	0xbcb54c11	-0.022130998
155	0x3dad48ef	0.084611766
156	0xbe9ba425	-0.3039867
157	0xbd9d5048	-0.07681328
158	0x3e97f94f	0.29682395
159	0x3db8b83c	0.09019515
160	0x3d96869b	0.07349893
161	0xbe8d1bfd	-0.27560416
162	0xbda9db1b	-0.08293744
163	0x3e992667	0.2991211
164	0x3dff20f5	0.12457458
165	0x3d1ea1c9	0.03872851
166	0xbd8e5fba	-0.06951852
167	0xbc65bfa0	-0.014022738
168	0x3deeee7d	0.11666582
169	0x3e1682bb	0.14698307
170	0x3e095ef9	0.13415135
171	0x3e038330	0.12843013
172	0xbc331758	-0.010930859
173	0x3d53b132	0.05168266
174	0xbd85c32e	-0.06531368
175	0xbd1fe9dd	-0.03904139
176	0xbeaca7c5	-0.33721748
177	0x3e0f9baf	0.14024232
178	0x3e8d11bb	0.2755259
179	0x3e171a2f	0.14756082
180	0xbdef36fa	-0.11680408
181	0xbf00385d	-0.50086004
182	0x3d3e1e98	0.046415895
183	0x3ec4e0f8	0.38452888
184	0x3e322262	0.17395929
185	0xbe0051f9	-0.1253127
186	0xbea2c488	-0.31790566
187	0xbd2a2bd2	-0.041545697
188	0x3ea486d5	0.3213412
189	0x3ea7654b	0.32694468
190	0xbd6da4e6	-0.058018588
191	0xbe9d089d	-0.30670634
192	0x3be404c0	0.006958574
193	0x3d991585	0.07474808
194	0x3d7558d5	0.05989917
195	0x3d3a059c	0.045415506
196	0x3cd33053	0.025779879
197	0xbdeb1cbf	-0.11480092
198	0x3d8ed294	0.06973758
199	0x3d9203eb	0.071296535
200	0xbe1e3dd1	-0.15453269
201	0xbeea1ed2	-0.4572664
202	0xbd73ae40	-0.05949235
203	0x3e8f4284	0.27980435
204	0x3d66b351	0.056323353
205	0xbe487ac3	-0.1957808
206	0xbf012eed	-0.5046223
207	0xbcd2d1df	-0.02573484
208	0x3ed859f9	0.42256144
209	0x3dfeb7e1	0.12437416
210	0x3ced34e2	0.02895588
211	0xbeefebb8	-0.46859527
212	0xbe1caaee	-0.1529958
213	0x3e3f323b	0.18671505
214	0x3e2922dd	0.16517206
215	0x3da0639d	0.078315
216	0xbe7d9f4a	-0.24767795
217	0xbdb4f3f7	-0.08835595
218	0x3d656474	0.056004003
219	0x3cf1187b	0.029430619
220	0xbd8bf40a	-0.06833656
221	0xbdbe2fb6	-0.09286444
222	0x3d9655f4	0.07340613
223	0xbd6d755d	-0.057973254
224	0xbd71406b	-0.058899324
225	0x3ea084ba	0.31351262
226	0x3e0da480	0.13832283
227	0x3ec6959f	0.38786027
228	0x3e923654	0.28557074
229	0x3e6e2aa9	0.23258461
230	0x3e788299	0.24268569
231	0x3e8ec55c	0.27884948
232	0x3e3accd6	0.18242201
233	0x3e38a9a8	0.18033469
234	0x3e3fb839	0.18722619
235	0x3eba3f2b	0.36376318
236	0x3be80c0e	0.007081515
237	0x3e1517e2	0.14559892
238	0x3d390b21	0.04517663
239	0x3d43101a	0.047622778
240	0x3e8737c9	0.26409748
241	0xbc4a979b	-0.012365247
242	0xbde88067	-0.11352616
243	0xbc5714e8	-0.013127543
244	0x3d83c87d	0.064347245
245	0x3d5b94d4	0.05360873
246	0xbe87d075	-0.26526228
247	0xbe628a1e	-0.22123
248	0xbd9da4bb	-0.076974355
249	0x3c01c84b	0.007921289
250	0xbe567519	-0.20943107
251	0xbe8b9493	-0.2726179
252	0xbe8215c8	-0.25407243
253	0xbebb485c	-0.36578643
254	0xbea1b67a	-0.3158453
255	0xbdcce068	-0.100037396

conv1.bias f4 [6]
0	0xbe6ada85	-0.22934921
1	0xbf1e98d9	-0.61951977
2	0xbe675e7e	-0.2259464
3	0xbec5e3b3	-0.38650283
4	0xbe26ab01	-0.1627617
5	0xbe048d9d	-0.12944646

conv2.weight f4 [16, 6, 5, 5]
0	0xbe3ac22f	-0.18238138
1	0xbdef2089	-0.116761275
2	0xbd8ea962	-0.06965901
3	0xbe1bac2a	-0.15202394
4	0xbe57aed8	-0.21062791
5	0xbd632c18	-0.055461973
6	0xbdba8703	-0.09107783
7	0xbb41a65f	-0.0029548628
8	0xbd027af7	-0.03185555
9	0xbe11b410	-0.14228845
10	0xbdd13e9f	-0.10217022
11	0xbb8f0887	-0.00436503
12	0xbe033adf	-0.12815426
13	0xbdb635da	-0.0889699
14	0xbdc9aea6	-0.09847765
15	0xbd90c4fc	-0.07068822
16	0xbda91c23	-0.0825732
17	0xbe26a225	-0.1627279
18	0xbd566713	-0.052344393
19	0xbd33f3f6	-0.04393383
20	0xbdea14e3	-0.11429765
21	0xbda86d52	-0.08223976
22	0xbd542be4	-0.05179967
23	0xbd4123a4	-0.04715313
24	0xbbb2c96a	-0.0054561393
25	0xbdb54ac4	-0.08852151
26	0xbd5224ab	-0.0513045
27	0x3d51b600	0.05119896
28	0xbca8dbea	-0.020612676
29	0xbe77a5ad	-0.24184294
30	0xbe0f6c13	-0.14006071
31	0x3c34b749	0.011030027
32	0x3b69d6cd	0.003568101
33	0xbdd52442	-0.10407306
34	0xbe65e7c7	-0.22451697
35	0x3caffa21	0.021481575
36	0xbd281905	-0.041039485
37	0xbe6b2c78	-0.22966182
38	0xbe280142	-0.1640673
39	0xbdb36b31	-0.087606795
40	0xbda8dff8	-0.08245844
41	0xbe0c7a17	-0.13718449
42	0xbe397686	-0.1811162
43	0xbd88dda7	-0.06682902
44	0xbe4b5ae6	-0.19858894
45	0xbdbb52a5	-0.091466226
46	0xbd7fad6e	-0.062421255
47	0x3df99202	0.12186052
48	0xbd2a74ea	-0.041615404
49	0xbe447523	-0.19185309
50	0x3e6713b1	0.22566105
51	0x3e85d70d	0.26140633
52	0xbe3809c4	-0.17972475
53	0xbe00437a	-0.1252574
54	0x3e061a60	0.13095999
55	0xbd5931bd	-0.05302595
56	0xbd8daaa8	-0.06917316
57	0x3da7defa	0.08196826
58	0x3e974cda	0.2955082
59	0xbd973f21	-0.07385088
60	0xbe8535e4	-0.26017678
61	0xbe2875b0	-0.16451144
62	0x3e7040fb	0.23462288
63	0x3e5ed62e	0.2176139
64	0xbda84043	-0.08215382
65	0xbda6f871	-0.08152855
66	0x3d71bdcc	0.059018895
67	0x3d4da49b	0.050205808
68	0xbea6becc	-0.3256744
69	0x3cd1d757	0.025615377
70	0x3d75b240	0.059984446
71	0xbb823d3a	-0.003974584
72	0xbe0cdc0d	-0.13755818
73	0xbe16eb64	-0.14738232
74	0xbd5edc57	-0.05440935
75	0xbdca12ad	-0.098668434
76	0xbe3e9719	-0.18612327
77	0x3dd21eec	0.10259804
78	0x3d7dbbaa	0.06194655
79	0xbe1693e4	-0.14704853
80	0xbe2f9380	-0.1714611
81	0x3e250972	0.16116884
82	0x3d96e8ba	0.07368608
83	0xbe564d9b	-0.20928042
84	0x3dd64430	0.104622245
85	0x3c7b45ac	0.015336435
86	0x3da55d20	0.08074403
87	0xbe40c762	-0.18826059
88	0xbdbcb419	-0.092140384
89	0x3dbb4c6d	0.091454364
90	0x3d7bdb1e	0.061488263
91	0xbd969466	-0.073525235
92	0xbc2621ff	-0.010139941
93	0xbc49ded3	-0.012321192
94	0x3e231654	0.15926486
95	0xbcbe0b8a	-0.023198862
96	0xba99d8ab	-0.0011737546
97	0x3d2d1a57	0.042261448
98	0x3e103346	0.1408206
99	0x3daf0f3a	0.08547826
100	0x3e6b4598	0.22975767
101	0x3db17305	0.08664516
102	0xbe7407c8	-0.23831093
103	0xbd7fff52	-0.06249935
104	0x3e40f158	0.18842065
105	0x3de76da1	0.11300207
106	0xbd5c3158	-0.053757995
107	0x3dc9c891	0.09852708
108	0x3e0b900c	0.13629168
109	0xbd349d4a	-0.044095315
110	0xbe0dc3d0	-0.13844228
111	0x3d8da48b	0.0691615
112	0x3ed893cb	0.42300257
113	0x3dbbbee7	0.09167271
114	0xbe17f180	-0.14838219
115	0xbc6220b5	-0.013801743
116	0x3e1e0fda	0.15435734
117	0x3e19086d	0.1494462
118	0xbe1a6c85	-0.1508046
119	0x3d64c754	0.055854157
120	0x3ddbfe71	0.1074189
121	0x3df6b55a	0.12046309
122	0x3c354ea4	0.011066113
123	0x3d66c762	0.05634249
124	0x3e62b8cf	0.22140811
125	0xbc608a1c	-0.013704803
126	0x3dbad779	0.091231294
127	0x3dc12897	0.0943157
128	0x3ba21733	0.004946613
129	0xbd1cab04	-0.03824903
130	0x3db0756d	0.08616147
131	0xbc811674	-0.015757777
132	0xbe06e372	-0.13172701
133	0xbd377c64	-0.044796363
134	0xbdf70e3f	-0.12063264
135	0x3bfc633e	0.0077022603
136	0xbd1a3fb8	-0.037658423
137	0xbd21f9e8	-0.03954497
138	0x3d294d3d	0.041333426
139	0xbe4d7a06	-0.2006608
140	0xbe0100db	-0.12597983
141	0x3d6ec9d7	0.05829796
142	0xbd410e61	-0.047132853
143	0xbcf8e2f1	-0.030381652
144	0xbd2ae067	-0.041717913
145	0xbb9bfd31	-0.0047604074
146	0xbd284918	-0.041085333
147	0xbe1d016b	-0.15332572
148	0xbe10d564	-0.14143902
149	0xbd75a621	-0.059972886
150	0x3e2985b0	0.16554904
151	0xbb243920	-0.0025058463
152	0x3d3fee1d	0.046857942
153	0x3dfd3b99	0.12364883
154	0x3db663b7	0.08905738
155	0xbd25c580	-0.040471554
156	0xbcd74906	-0.026279937
157	0x3d225805	0.039634723
158	0x3b6e8076	0.0036392487
159	0x3982b28b	0.00024928557
160	0xbd955e83	-0.07293417
161	0x3bed8374	0.0072483364
162	0x3dc4e2b8	0.09613556
163	0xbd462c4a	-0.04838208
164	0xbe02dfeb	-0.1278073
165	0xbd13afbf	-0.036056276
166	0xbc63bcc1	-0.013899983
167	0x3e347b9c	0.17625278
168	0x3d7e964d	0.062155057
169	0xbd5dcb55	-0.05414899
170	0xbd83fecb	-0.06445082
171	0xbda471b0	-0.08029497
172	0xbd6abbba	-0.057307936
173	0xbdbaa410	-0.09113324
174	0xbe4f7683	-0.20260052
175	0x3da48bee	0.08034502
176	0xbd24adf4	-0.040204957
177	0xbe197120	-0.1498456
178	0x3d2442b4	0.040102676
179	0xbcc7f288	-0.02440764
180	0xbd58a368	-0.05289021
181	0xbccfe38f	-0.025377063
182	0xbda42a13	-0.080158375
183	0xbd27cf72	-0.04096932
184	0x3ca34b97	0.019933505
185	0x3d0f1616	0.034933172
186	0x3ce63d2c	0.02810534
187	0xbcd1f848	-0.025631085
188	0xbdcfd04c	-0.10147151
189	0xb9c17e63	-0.00036905994
190	0x3d09da92	0.03365571
191	0x3e243b1f	0.16038178
192	0x3dcc094e	0.09962712
193	0xbd2ca87e	-0.042152874
194	0xbda0a40b	-0.07843789
195	0x3e16f450	0.14741635
196	0x3e8bba34	0.272905
197	0x3e06e1be	0.13172051
198	0xbdbe1139	-0.09280629
199	0xbd8c5e67	-0.06853943
200	0xbd37a2f8	-0.044833153
201	0x3e12c3c4	0.14332491
202	0x3d62aa4c	0.05533819
203	0xbe395948	-0.18100464
204	0xbd8b79d9	-0.0681035
205	0x3e0a8f16	0.13531145
206	0x3e892d90	0.26792574
207	0xbc74a0c0	-0.014930904
208	0xbe81e953	-0.25373325
209	0x3da72bf9	0.08162684
210	0x3d08b944	0.033379808
211	0x3e959ee8	0.29222798
212	0xbe7f65be	-0.24941155
213	0xbdacd50e	-0.084390745
214	0x3e61e326	0.22059307
215	0xbd5ade46	-0.053434633
216	0x3e1fbbb3	0.15598945
217	0xbebc77b8	-0.36810088
218	0xbdb151c5	-0.086581744
219	0x3e5301f0	0.20606208
220	0xbe7fdfdb	-0.24987738
221	0xbddd54cd	-0.1080719
222	0xbe688885	-0.22708328
223	0x3c56654d	0.013085675
224	0x3e02bffe	0.12768552
225	0x3dbac4ea	0.091195896
226	0x3ca02163	0.01954717
227	0xbca328f1	-0.019916983
228	0x3de1791e	0.110094294
229	0x3e485814	0.19564849
230	0x3e014f12	0.12627819
231	0xbd562447	-0.05228069
232	0x3d3690a8	0.04457155
233	0x3e390c36	0.18071064
234	0x3e232484	0.15931898
235	0x3dac6977	0.08418553
236	0xbcd134af	-0.025537817
237	0x3db58378	0.08862966
238	0x3e35507f	0.17706488
239	0xbdeed8e7	-0.116624646
240	0x3e0d9719	0.1382717
241	0x3b689cff	0.0035493968
242	0x3dbfd522	0.09366824
243	0x3de523b1	0.11188448
244	0xbe32bef2	-0.17455652
245	0x3dadf7af	0.084945075
246	0xbded7cce	-0.1159607
247	0xbdeb03f6	-0.11475365
248	0xbe1a8a39	-0.1509179
249	0xbe6675e7	-0.22505914
250	0xbdd92994	-0.106036335
251	0xbd9cd8d5	-0.07658545
252	0xbdce5efb	-0.1007671
253	0xbe2f733e	-0.17133805
254	0xbe2192a3	-0.15778594
255	0xbe753d63	-0.23949198

conv2.bias f4 [16]
0	0x3f29f263	0.6638548
1	0xbf4c9e0a	-0.7992865
2	0x3daf7caa	0.085687
3	0xbe940d8c	-0.28916585
4	0xbeb2166b	-0.3478273
5	0x3dc87617	0.09788149
6	0xbef88a47	-0.48542997
7	0xbcaf918e	-0.02143171
8	0xbe4ab527	-0.19795667
9	0x3d325e6e	0.043547086
10	0x3e9ff31b	0.31240162
11	0x3e261209	0.16217817
12	0x3ebb90e9	0.36633995
13	0x3f2ba8ac	0.6705425
14	0x3eb84ed3	0.35997638
15	0xbea49143	-0.32142076

fc1.weight f4 [120, 400]
0	0xbcd9419b	-0.026520541
1	0xbcb48811	-0.022037538
2	0x39e0a3a1	0.00042846522
3	0xbc955dd6	-0.018233221
4	0x3d2b90e4	0.041886225
5	0xbb6d12d0	-0.0036174543
6	0xbc5499f0	-0.012976155
7	0xbd39fc30	-0.04540652
8	0x3cc68c8b	0.024236938
9	0x3cc8564a	0.024455208
10	0x3bfae221	0.007656351
11	0xbc9067af	-0.017627565
12	0xbcd5d67c	-0.02610325
13	0x3cc6d54a	0.024271626
14	0xbb9fe321	-0.004879371
15	0x3c13bf41	0.009017766
16	0x39ffca1a	0.00048787968
17	0x3bb4eca7	0.005521375
18	0xba6d4445	-0.00090510055
19	0x3c42c3ad	0.011887473
20	0x3d1e3986	0.038629077
21	0x3d2e6372	0.042575307
22	0xbd096a88	-0.03354886
23	0xbd5ef2ad	-0.054430652
24	0x3c9a1825	0.018810341
25	0xbcbfbc1a	-0.023405124
26	0xbcc01cfb	-0.023451319
27	0x3c1b3e4c	0.009475302
28	0xbd4ecbb8	-0.05048725
29	0xbd0c2438	-0.03421423
30	0xbccebeec	-0.025237523
31	0xbd029275	-0.031877954
32	0xbd1a6b7b	-0.037700158
33	0x3cd8f295	0.02648286
34	0x3c9ce746	0.019153249
35	0xbd0315fc	-0.032003388
36	0xbd2a4c01	-0.04157639
37	0xbd0c95f4	-0.034322694
38	0xbc228c46	-0.009921139
39	0x3bc1817d	0.005905329
40	0xbcb8d33a	-0.022561658
41	0xbc18115a	-0.009281481
42	0xbcf31fca	-0.029678244
43	0x3d43fde1	0.04784954
44	0x3cc20b62	0.023687068
45	0x3d0c018c	0.034181163
46	0xbd3a8a87	-0.045542266
47	0x3cc7d8f0	0.024395436
48	0xbc06f84b	-0.008237909
49	0x3d1769ae	0.03696602
50	0xbcebfac2	-0.028806094
51	0x3d31a86d	0.043373514
52	0x3ce4a2d7	0.02790968
53	0x3c23915a	0.009983385
54	0x3c295e5f	0.010337441
55	0xbd39e19c	-0.045381173
56	0xbc1b6a8b	-0.009485851
57	0xbc72b86c	-0.014814477
58	0x3beb2355	0.0071758428
59	0x3bcd4909	0.00626481
60	0xbce0fb1c	-0.027463488
61	0x3c05fdf8	0.008178227
62	0x3b09a794	0.0021004425
63	0xbc449ecd	-0.012000752
64	0x3c48c1ee	0.012253268
65	0xbc4a75e3	-0.012357208
66	0xbce5dd3f	-0.0280596
67	0x3cc8521b	0.024453213
68	0x3b2d3adb	0.0026432786
69	0xbd1a2b79	-0.037639115
70	0x3c9dc02e	0.019256677
71	0xbcb96140	-0.02262938
72	0xbd3033f3	-0.043018293
73	0xbd3e4abe	-0.046458
74	0xbb1b34e6	-0.0023682653
75	0xbc670c20	-0.014102012
76	0x3be2eccf	0.0069252024
77	0xbd7cc840	-0.06171441
78	0xbb185c69	-0.002324844
79	0xbb3055a9	-0.0026906526
80	0x3cbad8b1	0.022808405
81	0x3d141874	0.036156133
82	0x3c8deed1	0.01732579
83	0x3d239d47	0.039944913
84	0x3ae6f803	0.0017621521
85	0xbbb03028	-0.0053768344
86	0xbd09b11a	-0.033616163
87	0x3d0cbb08	0.034358054
88	0xbca61ef6	-0.020278435
89	0xbd09bbec	-0.033626482
90	0xbd17264e	-0.036901765
91	0xbc8a3b0e	-0.016873863
92	0x3d076473	0.03305478
93	0xbd2cf932	-0.04222984
94	0xbba8acdf	-0.005147561
95	0xbca27621	-0.019831719
96	0xbd289cf8	-0.041165322
97	0x3b674a9a	0.0035292269
98	0x3c9f6829	0.019458847
99	0xbd6e76ea	-0.058218874
100	0x3a969a6b	0.0011490112
101	0x3c36506a	0.011127571
102	0xbcddb7ef	-0.027065245
103	0x3cca3941	0.024685504
104	0xbce3b6f6	-0.027797204
105	0x3cfe5476	0.031046133
106	0xbd400868	-0.046883017
107	0xbad49a3f	-0.0016220285
108	0x3cc52fd2	0.024070654
109	0x3d0269fd	0.03183936
110	0xbc02877c	-0.007966872
111	0xbd164fcd	-0.036697198
112	0xbc420a7b	-0.011843319
113	0x3ca89ed6	0.020583551
114	0xbc185a61	-0.009298892
115	0xbd14f1c9	-0.036363397
116	0xbc4171d6	-0.011806926
117	0x3bfa3876	0.007636125
118	0x3ce3c67b	0.027804604
119	0x3cfbb2b7	0.030724866
120	0xb920aea8	-0.00015323854
121	0x3cd094f4	0.025461651
122	0xbd067309	-0.03282455
123	0xbca22fe6	-0.01979823
124	0xbd4a376d	-0.049369264
125	0xbd0556f2	-0.03255362
126	0x3c94c73c	0.018161409
127	0x3c272b07	0.01020313
128	0x3ca0679e	0.019580659
129	0x3d3132ff	0.043261524
130	0x3d01082c	0.031501934
131	0x3d0b7520	0.034047246
132	0xbc43c57f	-0.011948942
133	0x3d32811e	0.043580167
134	0xbd3dad50	-0.04630786
135	0x3c41e24f	0.011833741
136	0x3cce1f70	0.025161475
137	0xbbbb0b7f	-0.0057081576
138	0xbce92fd9	-0.028465198
139	0x3cd8227d	0.026383633
140	0xbabc92fd	-0.0014387068
141	0x3cfbd996	0.030743401
142	0x3d610ae4	0.054942027
143	0xbcd24336	-0.025666814
144	0xbbed9cda	-0.007251364
145	0xbc5fa03e	-0.013649045
146	0x3bd3f7d8	0.0064687543
147	0xbccd8b1e	-0.02509075
148	0xbd21e90d	-0.039528895
149	0xbc2a4f84	-0.010394935
150	0xbd105897	-0.035240736
151	0xbcbb58b5	-0.022869447
152	0x3cb1240c	0.021623634
153	0xbd445b9c	-0.047938928
154	0x3b1f9e99	0.0024356006
155	0x3d09bbb9	0.033626292
156	0xbc92645c	-0.01787012
157	0xbd498bf8	-0.04920575
158	0x3d07d117	0.033158388
159	0x3d174386	0.03692963
160	0x3cc0bbe4	0.023527093
161	0x3c4c5587	0.012471563
162	0x3d0956b3	0.03352995
163	0xbd0ac386	-0.033877872
164	0xbbdc688f	-0.0067263315
165	0x3c83fb0a	0.016110916
166	0xbd05fb2f	-0.03271025
167	0xb91553a8	-0.00014240912
168	0xbd4d072b	-0.050055664
169	0x3b62563d	0.0034536265
170	0x3d00a821	0.03141034
171	0xbd081900	-0.033226967
172	0xbd4c3dc8	-0.049863607
173	0xbd1e8ded	-0.03870957
174	0xbc0d2306	-0.008614307
175	0x3c048210	0.00808765
176	0x3cfe8aec	0.031072102
177	0x3d1ffd11	0.039059702
178	0xbc78cc92	-0.015185492
179	0xbc211114	-0.009830732
180	0x3cdf5041	0.027259948
181	0x3d00a314	0.031405523
182	0x3c2ffe6e	0.010741813
183	0xbb9f8cde	-0.0048690876
184	0xbc926709	-0.017871397
185	0x3c388e06	0.01126433
186	0x3cbf2d1e	0.023336943
187	0x3ce71418	0.028207824
188	0xbb43a264	-0.002985143
189	0x3c6c70a2	0.014431151
190	0x3d1244e4	0.03571023
191	0x3d05b698	0.032644838
192	0xbca6909e	-0.02033263
193	0x3c1ce77e	0.009576676
194	0xbd06918d	-0.03285365
195	0x3c19e387	0.009392626
196	0xbcb7b97d	-0.022427315
197	0xbd2e3753	-0.04253323
198	0x3cebcf30	0.028785318
199	0xbd33a618	-0.04385957
200	0x3c1db8c3	0.00962657
201	0xbd39d32d	-0.04536741
202	0xbc95aae9	-0.018269973
203	0x3ba5f9c5	0.0050651752
204	0x3cc042df	0.023469387
205	0x3cc435be	0.023951408
206	0xbd3e6a34	-0.046488002
207	0xbd085e9c	-0.03329335
208	0x3c86ad1a	0.016439963
209	0x3c2de9ea	0.0106148515
210	0xbc36a469	-0.011147597
211	0x3cb7fab3	0.02245841
212	0xbc6ab4d1	-0.014325337
213	0xbd0b91ac	-0.03407447
214	0xbb41199d	-0.002946473
215	0x3a5db943	0.0008458087
216	0xbbc2ef38	-0.0059489273
217	0x3cddb044	0.027061589
218	0xbcd00f0e	-0.025397804
219	0xbc47e2d5	-0.012200077
220	0x3c3bee39	0.011470371
221	0xbc23dcd1	-0.010001377
222	0x3c6aedaa	0.01433889
223	0xbd5382b9	-0.05163834
224	0x3acb3d57	0.0015505952
225	0x3c2fe854	0.010736544
226	0x3cca9ceb	0.024733027
227	0xbb3a977f	-0.0028471646
228	0x3d117ecf	0.035521325
229	0x3d138007	0.03601077
230	0x3c89f3be	0.016839858
231	0x3c74c58f	0.01493968
232	0xbd08caaa	-0.0333964
233	0xbd123a66	-0.035700224
234	0x3d10f78b	0.035392325
235	0xbd18622a	-0.03720299
236	0x3c20bcb8	0.009810619
237	0xbd3c3fcb	-0.045959275
238	0x3d27470d	0.040839244
239	0xbc568448	-0.013093062
240	0x3c157411	0.009121911
241	0x3d0a5f9a	0.03378258
242	0xba9b056e	-0.001182718
243	0xbcfd1094	-0.030891694
244	0xbca5199c	-0.020153813
245	0xbd007b3e	-0.031367533
246	0xbd13d9aa	-0.036096253
247	0xbd3546db	-0.044257026
248	0xbbf02751	-0.0073289056
249	0xbc8956f2	-0.016765092
250	0x3a9216e3	0.0011145737
251	0xbd01773b	-0.031607848
252	0x3cbca564	0.023028083
253	0xbbd9123d	-0.0066244886
254	0xbd1ea830	-0.038734615
255	0xbba6d7a5	-0.005091625

fc1.bias f4 [120]
0	0xbb3d84d1	-0.0028918276
1	0x3e20ec25	0.15715082
2	0x3db0f621	0.08640695
3	0xbd113382	-0.035449512
4	0x3d9055b3	0.07047596
5	0xbe17091e	-0.14749572
6	0xbd3711f2	-0.04469485
7	0x3d41825a	0.047243454
8	0x3e2a5c29	0.16636719
9	0xbcb98d5f	-0.022650419
10	0x3de8d597	0.11368864
11	0x3d8fdcd5	0.07024542
12	0xbd86c619	-0.06580753
13	0xbc294846	-0.010332173
14	0x3e537127	0.20648633
15	0x3e1f89c6	0.155799
16	0xbe488f79	-0.1958598
17	0x3e5a2036	0.2130135
18	0x3d94828b	0.072514616
19	0xbce7b713	-0.028285539
20	0x3d4e9249	0.050432477
21	0x3d565a2e	0.052332096
22	0xbd0d1987	-0.034448173
23	0xbe0c3112	-0.13690594
24	0xbd521772	-0.05129189
25	0xbcbfe918	-0.023426577
26	0x3c012e6c	0.007884603
27	0xbc97d1f7	-0.018532736
28	0x3e00bca5	0.12571962
29	0xbcf34c2c	-0.029699408
30	0xbdc943f5	-0.09827415
31	0x3e156f0e	0.14593145
32	0x3e29e297	0.16590343
33	0xbdf3ad5c	-0.118983
34	0xbb5de5ac	-0.003385882
35	0x3d6676af	0.05626553
36	0x3c4064e7	0.011742807
37	0x3e0a9345	0.13532741
38	0x3d527312	0.05137927
39	0xbc147407	-0.009060866
40	0x3e0dcde5	0.13848074
41	0x3d032aa5	0.03202309
42	0xbd53373d	-0.05156635
43	0x3d14e269	0.036348734
44	0x3e16219f	0.14661263
45	0x3d2aec46	0.041729234
46	0xbda741eb	-0.0816687
47	0xbd90e88e	-0.07075606
48	0xbd0fc717	-0.035101976
49	0x3e1982ad	0.14991255
50	0xbcccfd5b	-0.025023153
51	0xbd530cdc	-0.051525936
52	0xbb32efb7	-0.0027303526
53	0xbd072e10	-0.033002913
54	0x3dd04ad8	0.10170525
55	0xbd4c7142	-0.0499127
56	0x3be581d7	0.0070040035
57	0x3e59d802	0.21273807
58	0x3d898b0f	0.067159764
59	0x3c7b420a	0.015335569
60	0xbc0e4509	-0.008683451
61	0xbc0f074d	-0.008729768
62	0xbcb8e4bb	-0.022570005
63	0x3e35f48c	0.17769068
64	0x3de48610	0.11158383
65	0x3ca00c57	0.019537134
66	0xbb933fac	-0.0044936743
67	0x3ddf97ca	0.10917623
68	0x3d8900e4	0.06689623
69	0x3b115457	0.0022175515
70	0x3cb2246a	0.02174588
71	0xbc759016	-0.014987966
72	0xbc220e39	-0.009891086
73	0x3d80d041	0.06289721
74	0x3d6653ca	0.05623225
75	0xbcb53883	-0.022121673
76	0x3e343696	0.17598948
77	0xbd20c868	-0.039253622
78	0x3d5834e9	0.052784834
79	0xbc2935bb	-0.010327752
80	0xbb9336cd	-0.0044926167
81	0xbd428402	-0.047489174
82	0x3c6de334	0.0145195015
83	0x3dbad0d7	0.09121864
84	0xbd5eee2f	-0.05442637
85	0x3d70c143	0.05877806
86	0x3bfb6e29	0.007673044
87	0xbd039dd4	-0.03213294
88	0xbe1405da	-0.14455357
89	0x3d026e14	0.03184326
90	0x3dd7b10d	0.10531817
91	0x3de96f2d	0.11398158
92	0x3dadeab5	0.084920324
93	0xbcb5e498	-0.022203729
94	0xbdf916f0	-0.12162578
95	0xbc245d92	-0.0100320745
96	0x3d9777ca	0.07395895
97	0xbdd6112b	-0.10452493
98	0x3ca1c282	0.019746069
99	0xbccea88c	-0.025226854
100	0x3d0101c9	0.031495843
101	0xbd9fe911	-0.07808126
102	0x3e5abd01	0.21361162
103	0xbce77182	-0.028252367
104	0x3d60ddf2	0.054899164
105	0x3bf2c1b1	0.0074083437
106	0xbc8573d7	-0.016290588
107	0x3c845327	0.016152931
108	0xbcb5cf2f	-0.02219352
109	0xbd3c3ffa	-0.04595945
110	0x3e2b9bc2	0.16758636
111	0x3da19c6a	0.07891162
112	0xbd9a893b	-0.07545706
113	0xba828a52	-0.0009959436
114	0x3d8e1140	0.06936884
115	0x3e433957	0.19064842
116	0x3c72d22f	0.0148206195
117	0x3e5554ae	0.20833084
118	0xbde6d63e	-0.11271332
119	0x3decef75	0.1156911

fc2.weight f4 [84, 120]
0	0xbdb7abfa	-0.08968349
1	0xbe5ee1f3	-0.2176588
2	0xbbfdd4c4	-0.007746311
3	0xbdb31836	-0.08744852
4	0xbd5e717f	-0.054307457
5	0x3d1fc2e0	0.039004207
6	0x3deff4e5	0.11716632
7	0x3d9b68c8	0.07588345
8	0x3cb23307	0.021752847
9	0x3d94e376	0.07269947
10	0xbdaffda9	-0.08593304
11	0x3db2c427	0.08728819
12	0x3d67e177	0.056611504
13	0xbd9b53e6	-0.07584362
14	0xbd5fcaf0	-0.054636896
15	0x3cf0bf47	0.029388083
16	0x3d754cd8	0.059887737
17	0x3d86c7e0	0.06581092
18	0xbbbe31a1	-0.005804256
19	0xbd4fb289	-0.050707374
20	0x3c3ae15c	0.011406269
21	0xbd8ca714	-0.06867805
22	0x3da06bab	0.07833036
23	0x3dbf5e8f	0.093442075
24	0x3dfd5a17	0.12370699
25	0x3d188297	0.037233915
26	0xbd0dfd0f	-0.034665164
27	0xbc48e735	-0.012262155
28	0xbe0f92b2	-0.14020804
29	0x3d76072b	0.06006543
30	0x3e471775	0.19442542
31	0x3d90d8d8	0.0707261
32	0xbd28e026	-0.04122939
33	0x3cc25df3	0.02372644
34	0x3d0c90f8	0.03431794
35	0x3b4d8a61	0.0031362998
36	0xbdafbc1b	-0.085808
37	0xbda5f0bf	-0.08102559
38	0xbcac06dd	-0.020999366
39	0xbce3a2f9	-0.027787672
40	0x3d8da13e	0.0691552
41	0x3d634b5e	0.055491798
42	0x3d91c851	0.071182854
43	0xbca896ee	-0.020579781
44	0x3e3261e8	0.17420161
45	0x3dadd192	0.08487238
46	0x3d15d4ae	0.03657978
47	0xbc05a795	-0.00815763
48	0xbd23c411	-0.039981905
49	0x3da10d59	0.07863874
50	0x3e30f5f4	0.17281324
51	0x3a04422f	0.00050452625
52	0xbd679a7f	-0.056543823
53	0x3b1415c6	0.0022595986
54	0x3c9bca17	0.019017262
55	0x3de80ba4	0.11330345
56	0x3c96256e	0.018328395
57	0xbc930f7f	-0.017951725
58	0xbc5fe244	-0.013664786
59	0x3d8fac7e	0.07015322
60	0x3da9f636	0.08298914
61	0x3d8fb45f	0.07016825
62	0x3c7535f6	0.014966479
63	0xbdba04f6	-0.090829775
64	0x3cae635b	0.02128761
65	0xbd30cb66	-0.043162726
66	0xbda7b2f1	-0.08188427
67	0xbd9762b4	-0.07391873
68	0x3c90111b	0.017586282
69	0x3cdc6484	0.026903398
70	0xbb0528d2	-0.002031852
71	0x3bac0457	0.005249541
72	0x3d5d2047	0.05398586
73	0x3daf2012	0.08551039
74	0x3e1381c8	0.14404976
75	0x3d7a98ef	0.061181005
76	0x3daee45d	0.085396506
77	0x3d93be90	0.07214081
78	0x3d1636c6	0.03667333
79	0xbd6730c4	-0.05644299
80	0x3db442ce	0.088018045
81	0xbdfd30f5	-0.123628534
82	0x3c0fa860	0.008768171
83	0x3db6b589	0.08921344
84	0x3d517caa	0.05114428
85	0xbe234206	-0.15943155
86	0xbcfa14a0	-0.030527413
87	0x3df72f82	0.12069608
88	0x3d44475c	0.047919616
89	0x3dc0f600	0.09421921
90	0xbdc46fa9	-0.0959161
91	0xbc8a3a4c	-0.016873501
92	0x3dfcbb3d	0.123404
93	0xbd2f4567	-0.042790797
94	0x3d692515	0.05692013
95	0x3dc56834	0.09639016
96	0xbd9162b7	-0.070989065
97	0x3cc9ce96	0.02463464
98	0x3db1ef52	0.08688225
99	0x3e2694b1	0.16267659
100	0xbe1e5a74	-0.15464193
101	0xbb38ea6a	-0.0028215894
102	0xbdfff25c	-0.12497398
103	0x3db83d9f	0.08996128
104	0x3d876669	0.0661133
105	0x3ce8b658	0.02840726
106	0x3d5fa217	0.05459794
107	0x3da7c0bf	0.0819106
108	0x3e2d6e22	0.16936544
109	0xbc8c5801	-0.017131807
110	0xbdadf15f	-0.084933035
111	0xbd3c3f81	-0.045959
112	0xbd1ddb2c	-0.038539097
113	0xbd9f1cc1	-0.07769156
114	0x3ba270dc	0.0049573015
115	0xbdb2404f	-0.08703672
116	0xbd3792aa	-0.044817604
117	0x3d4a976e	0.04946082
118	0x3dd1f1c8	0.10251194
119	0xbdbda8e9	-0.09260733
120	0x3baf9cdb	0.005359275
121	0x3dc9c0f4	0.09851256
122	0x3d0250e1	0.031815413
123	0x3d9a82e1	0.075444944
124	0xbd687fa0	-0.056762338
125	0x3c944965	0.018101403
126	0x3cec0b53	0.028813994
127	0xbdae07ff	-0.08497619
128	0xbdd4d9e3	-0.10393121
129	0xbdce3f0f	-0.10070621
130	0x3c9e2fb2	0.019309852
131	0x3debd286	0.115147635
132	0xbd9a03d6	-0.07520263
133	0x3d93f467	0.072243504
134	0xbde60969	-0.112322636
135	0x3e27bfc2	0.16381744
136	0x3dc4c47d	0.0960779
137	0x3dec7cc7	0.11547237
138	0xbd817619	-0.063213535
139	0x3c8191b1	0.015816541
140	0xbd20620d	-0.03915601
141	0xbe36cf02	-0.17852405
142	0x3d0cf0b4	0.03440924
143	0x3d186708	0.037207633
144	0xbd7aafbb	-0.061202746
145	0x3d4df883	0.050285827
146	0x3d8652ef	0.06558787
147	0xbe3b4b37	-0.18290411
148	0x3dc9b8fe	0.098497376
149	0x39cd831f	0.0003919834
150	0x3ca8db3c	0.020612352
151	0x3cd6bd7b	0.026213398
152	0x3e0dbf0c	0.1384241
153	0x3d77a4d3	0.060459923
154	0xbc137692	-0.009000437
155	0xbb36ce6d	-0.0027894035
156	0xbd2195c9	-0.039449487
157	0xbe0120c2	-0.12610152
158	0x3dce92aa	0.10086568
159	0x3db3909f	0.08767819
160	0xbda49ac4	-0.08037332
161	0x3e191b66	0.14951858
162	0x3c95be2f	0.018279163
163	0xbb786183	-0.0037899918
164	0x3dfc264c	0.12311992
165	0xbd178b07	-0.03699782
166	0xbc3842ba	-0.011246378
167	0xbdc59393	-0.09647288
168	0x3b996906	0.004681709
169	0x3dbf78dc	0.09349224
170	0xbe09c270	-0.13453078
171	0xbe1990fa	-0.1499671
172	0x3d1d741e	0.038440816
173	0x3d34badc	0.044123515
174	0x3c7b0b80	0.015322566
175	0xbdb52529	-0.08844978
176	0x3d615e56	0.055021606
177	0x3cca354a	0.024683613
178	0x3c7dd978	0.015493743
179	0xbd663986	-0.056207202
180	0x3d71a0f7	0.0589914
181	0x3e205cfc	0.1566047
182	0xbd077e2d	-0.033079315
183	0xbcac810d	-0.02105763
184	0xbd535272	-0.051592298
185	0xbd786e4a	-0.060652055
186	0x3d83e5bf	0.06440305
187	0xbba95b99	-0.00516839
188	0x3ddccae3	0.10780885
189	0xbd96900a	-0.07351692
190	0x3c677f54	0.0141294785
191	0xbdf67a80	-0.12035084
192	0xbaeaa5b9	-0.0017902172
193	0x3d05ab97	0.032634344
194	0xbd44b11a	-0.04802046
195	0x3cedbc34	0.029020406
196	0xbd8aaf11	-0.067716725
197	0x3d8d9b1d	0.06914351
198	0xbdcc11e6	-0.09964351
199	0x3d6244d5	0.055241425
200	0x3cd9f690	0.026606828
201	0x3d4983d9	0.049198005
202	0xbd941f2f	-0.0723251
203	0xbdb7c742	-0.08973552
204	0xbdae8913	-0.085222386
205	0xbab41e6e	-0.0013741979
206	0xbd2e01d8	-0.042482227
207	0x3dd756a2	0.10514571
208	0xbd8967b2	-0.067092314
209	0x3da626df	0.08112883
210	0x3d2b5a8f	0.04183441
211	0xbc531e0b	-0.012885581
212	0x3bc16328	0.005901713
213	0xbd36e8ac	-0.044655487
214	0xbd2a5456	-0.041584335
215	0x3cd8e374	0.026475646
216	0xbc8f5232	-0.017495248
217	0xbdcc71c6	-0.09982638
218	0x3dbe1ae4	0.09282473
219	0x3cad9b81	0.021192314
220	0x3d210260	0.039308906
221	0xbdc9c906	-0.09852795
222	0x3d694006	0.056945823
223	0x3d5ad40f	0.05342489
224	0x3d97ad0f	0.07406055
225	0xbd2eaba6	-0.042644165
226	0xbcd8aab9	-0.026448594
227	0x3d8a6f1b	0.06759473
228	0x3d65ad43	0.05607344
229	0x3d5644a4	0.052311555
230	0xbb35f6e9	-0.0027765578
231	0x3c10d2aa	0.008839289
232	0xbafa5172	-0.0019097759
233	0x3db8edd0	0.09029734
234	0xbda29251	-0.07938064
235	0x3d55afaf	0.052169498
236	0x3de49cbf	0.111627094
237	0x3d25aec8	0.040449888
238	0xbddfd81b	-0.10929891
239	0xbdbe18a7	-0.09282046
240	0xbc4fda8d	-0.012686384
241	0xbdb1b2b7	-0.08676665
242	0x3cd83c4d	0.026395941
243	0xbcb92fd3	-0.022605812
244	0xbdecf23f	-0.11569642
245	0xbd457684	-0.04820873
246	0x3cfe4830	0.031040281
247	0x3e2f2dc7	0.17107306
248	0x3a8f9b89	0.0010956387
249	0x3d9c4b0f	0.07631504
250	0xbd358a16	-0.044321142
251	0xbe0c4ce7	-0.13701211
252	0xbc2c0758	-0.010499798
253	0xbca37b24	-0.019956179
254	0x3e13249f	0.14369439
255	0x3bfec924	0.0077754427

fc2.bias f4 [84]
0	0xbe3ef4bc	-0.18648046
1	0x3e1b3278	0.15155971
2	0x3e7f544c	0.249345
3	0xbb44272d	-0.0029930577
4	0xbd99d94d	-0.0751215
5	0x3c1e2220	0.009651691
6	0x3b8e3e3f	0.0043409164
7	0x3e7f167c	0.24910921
8	0xbd6a856a	-0.05725614
9	0xbbd56e40	-0.006513387
10	0x3d38186f	0.044945177
11	0xbdedc866	-0.116104886
12	0x3d55cb72	0.052195974
13	0x3d30bb8e	0.043147616
14	0x3ea9c9b6	0.33161706
15	0x3d911061	0.07083202
16	0xbda1f831	-0.07908667
17	0xbd25ad44	-0.040448442
18	0x3d633cdd	0.055477966
19	0x3c80ccfd	0.015722746
20	0x3cc595c2	0.024119262
21	0xbd80ce3c	-0.06289336
22	0x3da7eb82	0.081992164
23	0xbd9324be	-0.071847424
24	0x3e870c8f	0.2637677
25	0x3e774e8b	0.24151056
26	0x3d03bd66	0.032163046
27	0xbdddd147	-0.10830932
28	0x3da37cfd	0.07982824
29	0xbda17041	-0.07882739
30	0x3e8afaaf	0.2714438
31	0x3d8e230f	0.06940281
32	0xbd9c814b	-0.07641848
33	0x3ea64d6f	0.32480952
34	0x3e99ddad	0.30051938
35	0x3cd79b46	0.026319157
36	0x3e4b28a4	0.19839722
37	0xbcefbdcf	-0.029265312
38	0x3e94016b	0.28907332
39	0xbd175434	-0.036945537
40	0xbd4af42d	-0.04954927
41	0xbdda829b	-0.10669442
42	0xbd89a9ae	-0.06721817
43	0x3de14df0	0.110011935
44	0x3e86b179	0.26307276
45	0xbdc44f14	-0.095853955
46	0x3e5d6e64	0.21624142
47	0x3dc5efda	0.09664889
48	0xbd584da9	-0.052808437
49	0x3ca5e1a6	0.0202492
50	0xbd85f837	-0.06541484
51	0x3de5a3f6	0.11212914
52	0xbdc57d1e	-0.09643005
53	0x3d22b9ac	0.03972785
54	0x3e3e0e15	0.1856006
55	0x3cfc115b	0.030769994
56	0xbdc1971c	-0.0945265
57	0xbd6df543	-0.058095228
58	0xbddc125a	-0.10745688
59	0x3cc1bb85	0.023648987
60	0xbab1e37f	-0.0013571827
61	0x3e8662f8	0.26247382
62	0x3c544b28	0.012957372
63	0x3c0589de	0.008150546
64	0x3ec12748	0.37725282
65	0x3e99e345	0.30056205
66	0x3e134f5f	0.14385746
67	0x3c7ef6bb	0.015561755
68	0x3de1cdb0	0.1102556
69	0xbcea26ba	-0.02858292
70	0xbd9a8fdf	-0.075469725
71	0x3cba15b9	0.022715436
72	0x3b6eb0d3	0.0036421313
73	0xbc9ec192	-0.01937941
74	0x3de7068f	0.11280548
75	0x3e8a8809	0.27056912
76	0x3e17c42a	0.14820924
77	0xbdadec0e	-0.084922895
78	0x3e883f86	0.26610965
79	0xbdc29132	-0.0950035
80	0x3e58b758	0.2116369
81	0x3e1048c5	0.1409026
82	0x3d5216ea	0.051291384
83	0x3b6d9fa5	0.0036258486

fc3.weight f4 [10, 84]
0	0x3e9c9b81	0.3058739
1	0x3e6593d0	0.22419667
2	0xbda0cf2e	-0.078520164
3	0xbc869b3a	-0.01643144
4	0xbdafe56f	-0.08588683
5	0x3e0e4e7d	0.13897128
6	0xbd9960a4	-0.07489136
7	0xbd63350d	-0.055470515
8	0x3e9a99c0	0.30195427
9	0x3d82d31d	0.06387923
10	0x3c388a77	0.011263481
11	0x3aa0d691	0.0012270977
12	0x3e15f14b	0.14642827
13	0x3d3e2c7b	0.04642914
14	0x3eb46547	0.35233518
15	0xbdcdc2f2	-0.100469485
16	0x3d0d7f93	0.034545492
17	0xbdc08555	-0.09400431
18	0x3be65a39	0.0070297983
19	0x3cf7523a	0.030190576
20	0xbe2e7b62	-0.17039254
21	0xbda3c789	-0.07997043
22	0x3e7f3ea7	0.24926244
23	0x3d02ed1a	0.0319644
24	0x3e84b119	0.25916365
25	0xbdc8d5e0	-0.098064184
26	0x3c81918f	0.015816478
27	0x3bc1f6e5	0.0059193247
28	0xbdc3a4d1	-0.095529206
29	0x3e322abc	0.17399114
30	0xbe2e3a42	-0.17014411
31	0xbe493b90	-0.19651628
32	0xbcd67e1a	-0.026183177
33	0xbe34f663	-0.17672114
34	0x3e500c9f	0.20317315
35	0xbd258387	-0.040408637
36	0xbc82cfde	-0.01596826
37	0xbdfa5b7e	-0.12224482
38	0xbe2dd1c6	-0.16974553
39	0xbd9a559e	-0.075358614
40	0xbd800b1c	-0.06252119
41	0xbe014a05	-0.12625892
42	0xbc60e12c	-0.01372556
43	0x3e30e926	0.17276439
44	0x3e8759b4	0.26435626
45	0x3c536ee2	0.0129048545
46	0x3da937de	0.08262609
47	0x3dbd55b1	0.0924486
48	0x3d857b63	0.06517675
49	0xbd8e7f58	-0.06957883
50	0x3dbe371e	0.092878565
51	0x3d62f8b7	0.055412974
52	0x3c71f040	0.014766753
53	0x3d4604a0	0.048344254
54	0xbdaefbf5	-0.08544151
55	0x3de5fc06	0.1122971
56	0xbd8bdeec	-0.06829628
57	0x3d409b37	0.047023024
58	0xbdd92c30	-0.10604131
59	0xbc4d57e1	-0.012533159
60	0xbd522296	-0.051302515
61	0x3daef498	0.08542746
62	0xbe54aca6	-0.20768985
63	0xbcb751ba	-0.022377837
64	0xbc984937	-0.018589599
65	0x3d804251	0.06262649
66	0x3d6aa747	0.057288434
67	0xbdb2f670	-0.087384105
68	0xbda8a9dc	-0.08235523
69	0xbcde9ea9	-0.027175264
70	0xbde29fff	-0.11065673
71	0x3db5da8f	0.08879577
72	0xbdbcd947	-0.0922113
73	0xbb292f46	-0.002581553
74	0xbe4cb27d	-0.19989963
75	0xbe8e4d10	-0.2779317
76	0x3e19637d	0.14979358
77	0xbc2e926e	-0.010655029
78	0xbdc7962e	-0.097454414
79	0x3cf34323	0.0296951
80	0xbd3f8817	-0.046760645
81	0x3e20a31e	0.15687224
82	0xbceaed6f	-0.02867767
83	0x3e868008	0.26269555
84	0x3e7ab67a	0.24483672
85	0xbd977f1a	-0.073972896
86	0xbe84072b	-0.2578672
87	0x3da40893	0.08009448
88	0xbd09a94d	-0.033608723
89	0x3d4aef2f	0.04954451
90	0xbd97ca96	-0.07411687
91	0x3c6e5922	0.014547618
92	0xbdb617bd	-0.088912465
93	0xbd62a1ce	-0.05533009
94	0x3cd6a3bc	0.026201122
95	0x3df0dd78	0.11760992
96	0xbe18eecc	-0.14934844
97	0xbc532b46	-0.012888735
98	0xbe57750e	-0.21040747
99	0xbe363625	-0.17794092
100	0x3dd1e523	0.102487825
101	0x3e503ecd	0.20336457
102	0xbe2a8c82	-0.16655162
103	0xbd2bcf3c	-0.04194568
104	0xbcf58055	-0.02996842
105	0x3d3c75a5	0.046010632
106	0x3e437ad9	0.19089831
107	0x3dd3d8c6	0.103440806
108	0xbe64dc00	-0.22349548
109	0xbd881f52	-0.06646599
110	0x3e46409b	0.19360583
111	0x3e21ec55	0.1581281
112	0xbe611bf3	-0.21983318
113	0x3e652e65	0.2238098
114	0xbe16ae4f	-0.14714931
115	0xbcee01f8	-0.029053673
116	0xbd961dcf	-0.07329904
117	0xbe6837d5	-0.22677548
118	0xbc1c4a6b	-0.009539227
119	0xbe291296	-0.16510996
120	0xbd741564	-0.059590712
121	0xbd6eda18	-0.05831346
122	0x3d5b14a2	0.053486474
123	0x3dc8d47e	0.09806155
124	0x3c5969fa	0.013269896
125	0x3debfcaa	0.11522801
126	0x3cc02271	0.023453923
127	0xbe642cb7	-0.22282682
128	0xbe9a3632	-0.30119473
129	0x3e0b2cdd	0.13591333
130	0xbe5a289e	-0.21304557
131	0x3d1ea12d	0.038727928
132	0xbd9c9233	-0.07645073
133	0x3da9a6ca	0.082837656
134	0xbd2f71bc	-0.042833075
135	0x3e0e4b6b	0.13895957
136	0x3d0a23d7	0.033725586
137	0x3e850980	0.2598381
138	0xbcc040a8	-0.02346833
139	0x3e24dad2	0.16099098
140	0xbd3122a1	-0.043245915
141	0xbd6d0ab7	-0.057871547
142	0x3e064c18	0.13114965
143	0xbc551f39	-0.013007932
144	0x3ad20d12	0.0016025624
145	0xbda11872	-0.07865991
146	0x3e4730dc	0.19452232
147	0xbbdcf282	-0.0067427764
148	0xbe428fd7	-0.19000183
149	0xbd8f7986	-0.07005601
150	0xbcd9857e	-0.026552912
151	0x3dece2e1	0.11566711
152	0x3e7fb6bc	0.24972051
153	0x3db8d7cd	0.09025536
154	0x3dfb1d0e	0.12261401
155	0x3cc697fe	0.024242397
156	0x3e2c26a7	0.1681162
157	0x3d9f4e81	0.07778645
158	0x3e1c9c93	0.15294103
159	0xbe5ba2bd	-0.21448798
160	0xbe18c699	-0.14919509
161	0x3e72e58d	0.23720379
162	0xbe19a9e1	-0.1500621
163	0x3e1aeea7	0.15130101
164	0x3d32ef74	0.04368539
165	0x3ccbad61	0.024862947
166	0xba8e7711	-0.0010869225
167	0x3e893498	0.26797938
168	0x3db748d3	0.08949437
169	0x3e19ec88	0.15031636
170	0x3e52ed97	0.20598446
171	0x3d8ca7cb	0.068679415
172	0xbd8fd144	-0.07022336
173	0xbdb41cf9	-0.087945886
174	0xbdb20d36	-0.08693926
175	0xbcb5a301	-0.022172453
176	0x3e284924	0.16434151
177	0xbe25f326	-0.16206035
178	0x3c94a35a	0.018144298
179	0xbc276c20	-0.01021865
180	0x3d817630	0.063213706
181	0x3e3387ec	0.17532319
182	0x3cc3843b	0.023866763
183	0x39dc7a0d	0.00042052605
184	0x3dbcc1a3	0.09216621
185	0xbd7f8702	-0.062384613
186	0xbd979f4f	-0.074034326
187	0xbcd38ba5	-0.025823424
188	0x3e08a877	0.13345514
189	0x3df7dfec	0.121032566
190	0xbdaa9d44	-0.08330777
191	0xbda3dee7	-0.080014996
192	0x3d88b54b	0.06675204
193	0x3d801e15	0.06255738
194	0xbcf51017	-0.029914899
195	0x3d50d5f7	0.050985303
196	0x3de59063	0.1120918
197	0xbe955e31	-0.29173425
198	0x3cfe5ace	0.031049158
199	0x3dc89109	0.09793288
200	0x3dc7380a	0.097274855
201	0xbd3c5dc4	-0.04598786
202	0xbd514931	-0.05109519
203	0xbcac1d52	-0.021010075
204	0x3e57de24	0.21080834
205	0x3d7483c5	0.059695978
206	0x3e094ea1	0.13408901
207	0xbd2565cb	-0.04038028
208	0xbddc5404	-0.10758212
209	0xbdb6d94c	-0.08928165
210	0x3d6d0a1b	0.057870965
211	0x3dba4b62	0.090964094
212	0x3ecc255f	0.39872262
213	0x3dcc07bd	0.099624135
214	0x3dc5162a	0.09623368
215	0x3ce3c817	0.027805371
216	0xbd8c0bfe	-0.06838225
217	0x3dce7568	0.10080987
218	0xbccff7a8	-0.025386646
219	0xb99fa1cd	-0.00030447394
220	0xbaa8fe42	-0.0012893158
221	0xbe5e916a	-0.21735159
222	0x3e512d78	0.20427501
223	0xbd9f8fb3	-0.0779108
224	0xbdc10dab	-0.09426435
225	0xbdd6127c	-0.10452744
226	0xbd93e6b3	-0.07221737
227	0xbde9a78d	-0.11408911
228	0x3c13cc42	0.009020867
229	0xbcecaafb	-0.028890124
230	0xbc5d5c87	-0.01351083
231	0xbe393820	-0.18087816
232	0x3d823dcf	0.06359445
233	0x3e812bc9	0.25228718
234	0xbd24caaf	-0.040232357
235	0x3c1e6c4c	0.009669375
236	0xbde322f5	-0.11090652
237	0xbe008feb	-0.125549
238	0x3cdd0097	0.02697782
239	0xbd5ba9e9	-0.053628836
240	0x3ae012d0	0.001709545
241	0xbdda22ae	-0.10651146
242	0x3e4cc1b5	0.19995768
243	0x3e1f4e3a	0.15557185
244	0x3d87fb76	0.06639759
245	0x3c53ea52	0.012934284
246	0x3e60a26f	0.21936963
247	0x3d931623	0.071819566
248	0xbd61d6bf	-0.05513644
249	0xbd9c6b03	-0.07637598
250	0x3e908883	0.2822915
251	0x3c2cf273	0.010555851
252	0x3d7f4899	0.062325094
253	0xbe8f4e52	-0.2798944
254	0x3dfb4272	0.12268533
255	0xbd29bc99	-0.041439626

fc3.bias f4 [10]
0	0xbde357de	-0.11100744
1	0xbf34eabb	-0.7067067
2	0x3e902852	0.28155762
3	0x3e720526	0.23634776
4	0x3eff95d3	0.49918994
5	0xbe4c2eb9	-0.19939698
6	0x3e0e546c	0.13899392
7	0xbe957921	-0.29193977
8	0x3eca7e8d	0.39549676
9	0xbd4a9ff5	-0.049468953
